…
The value is the same before and after calling `init_weights` of UVTRSSL  

depth_net.depth_conv.3.bn1.bias - torch.Size([256]): 
The value is the same before and after calling `init_weights` of UVTRSSL  

depth_net.depth_conv.4.weight - torch.Size([118, 256, 1, 1]): 
The value is the same before and after calling `init_weights` of UVTRSSL  

depth_net.depth_conv.4.bias - torch.Size([118]): 
The value is the same before and after calling `init_weights` of UVTRSSL  
2024-11-12 11:50:01,677 - mmdet - INFO - Model:
UVTRSSL(
  (pts_bbox_head): RenderHead(
    (view_trans): Uni3DVoxelPoolDepth(
      (conv_layer): ModuleList()
      (trans_conv): Sequential(
        (0): Conv3d(768, 256, kernel_size=(1, 1, 1), stride=(1, 1, 1))
        (1): BatchNorm3d(256, eps=1e-05, momentum=0.1, affine=True, track_running_stats=True)
        (2): ReLU(inplace=True)
      )
      (time_conv): Sequential(
        (0): Conv3d(257, 256, kernel_size=(1, 1, 1), stride=(1, 1, 1))
        (1): BatchNorm3d(256, eps=1e-05, momentum=0.1, affine=True, track_running_stats=True)
        (2): ReLU(inplace=True)
      )
    )
    (render_conv): Sequential(
      (0): Conv3d(256, 32, kernel_size=(3, 3, 3), stride=(1, 1, 1), padding=(1, 1, 1))
      (1): BatchNorm3d(32, eps=1e-05, momentum=0.1, affine=True, track_running_stats=True)
      (2): ReLU(inplace=True)
    )
    (render_model): NeuSModel(
      (field): SDFField(
        (sdf_decoder): SDFDecoder(
          (lin0): Linear(in_features=16, out_features=16, bias=True)
          (lin1): Linear(in_features=16, out_features=16, bias=True)
          (lin2): Linear(in_features=16, out_features=16, bias=True)
          (lin3): Linear(in_features=16, out_features=16, bias=True)
          (lin4): Linear(in_features=16, out_features=16, bias=True)
          (lin5): Linear(in_features=16, out_features=17, bias=True)
          (fc_c): ModuleList(
            (0): Linear(in_features=32, out_features=16, bias=True)
            (1): Linear(in_features=32, out_features=16, bias=True)
            (2): Linear(in_features=32, out_features=16, bias=True)
            (3): Linear(in_features=32, out_features=16, bias=True)
            (4): Linear(in_features=32, out_features=16, bias=True)
            (5): Linear(in_features=32, out_features=16, bias=True)
          )
          (fc_p): Linear(in_features=3, out_features=16, bias=True)
          (activation): Softplus(beta=100, threshold=20)
        )
        (rgb_decoder): RGBDecoder(
          (lin0): Linear(in_features=16, out_features=16, bias=True)
          (lin1): Linear(in_features=16, out_features=16, bias=True)
          (lin2): Linear(in_features=16, out_features=16, bias=True)
          (lin3): Linear(in_features=16, out_features=3, bias=True)
          (fc_c): ModuleList(
            (0): Linear(in_features=54, out_features=16, bias=True)
            (1): Linear(in_features=54, out_features=16, bias=True)
            (2): Linear(in_features=54, out_features=16, bias=True)
            (3): Linear(in_features=54, out_features=16, bias=True)
          )
          (fc_p): Linear(in_features=3, out_features=16, bias=True)
          (activation): ReLU()
        )
        (deviation_network): SingleVarianceNetwork()
      )
      (collider): AABBBoxCollider()
      (sampler): NeuSSampler(
        (initial_sampler): UniformSampler()
        (pdf_sampler): PDFSampler()
      )
      (rgb_renderer): RGBRenderer()
      (depth_renderer): DepthRenderer()
    )
  )
  (img_backbone): MaskConvNeXt(
…
        (0): SparseLayerNorm((192,), eps=1e-06, elementwise_affine=True)
        (1): SparseConv2d(192, 384, kernel_size=(2, 2), stride=(2, 2))
      )
      (3): Sequential(
        (0): SparseLayerNorm((384,), eps=1e-06, elementwise_affine=True)
        (1): SparseConv2d(384, 768, kernel_size=(2, 2), stride=(2, 2))
      )
    )
    (stages): ModuleList(
      (0): Sequential(
        (0): SparseConvNeXtBlock(
          (dwconv): SparseConv2d(96, 96, kernel_size=(7, 7), stride=(1, 1), padding=(3, 3), groups=96)
          (norm): SparseLayerNorm((96,), eps=1e-06, elementwise_affine=True)
          (pwconv1): Linear(in_features=96, out_features=384, bias=True)
          (act): GELU()
          (pwconv2): Linear(in_features=384, out_features=96, bias=True)
          (drop_path): Identity()
        )
        (1): SparseConvNeXtBlock(
          (dwconv): SparseConv2d(96, 96, kernel_size=(7, 7), stride=(1, 1), padding=(3, 3), groups=96)
          (norm): SparseLayerNorm((96,), eps=1e-06, elementwise_affine=True)
          (pwconv1): Linear(in_features=96, out_features=384, bias=True)
          (act): GELU()
          (pwconv2): Linear(in_features=384, out_features=96, bias=True)
          (drop_path): DropPath(drop_prob=0.006)
        )
        (2): SparseConvNeXtBlock(
          (dwconv): SparseConv2d(96, 96, kernel_size=(7, 7), stride=(1, 1), padding=(3, 3), groups=96)
          (norm): SparseLayerNorm((96,), eps=1e-06, elementwise_affine=True)
          (pwconv1): Linear(in_features=96, out_features=384, bias=True)
          (act): GELU()
          (pwconv2): Linear(in_features=384, out_features=96, bias=True)
          (drop_path): DropPath(drop_prob=0.011)
        )
      )
      (1): Sequential(
        (0): SparseConvNeXtBlock(
          (dwconv): SparseConv2d(192, 192, kernel_size=(7, 7), stride=(1, 1), padding=(3, 3), groups=192)
          (norm): SparseLayerNorm((192,), eps=1e-06, elementwise_affine=True)
          (pwconv1): Linear(in_features=192, out_features=768, bias=True)
          (act): GELU()
          (pwconv2): Linear(in_features=768, out_features=192, bias=True)
          (drop_path): DropPath(drop_prob=0.017)
        )
        (1): SparseConvNeXtBlock(
          (dwconv): SparseConv2d(192, 192, kernel_size=(7, 7), stride=(1, 1), padding=(3, 3), groups=192)
          (norm): SparseLayerNorm((192,), eps=1e-06, elementwise_affine=True)
          (pwconv1): Linear(in_features=192, out_features=768, bias=True)
          (act): GELU()
          (pwconv2): Linear(in_features=768, out_features=192, bias=True)
          (drop_path): DropPath(drop_prob=0.023)
        )
        (2): SparseConvNeXtBlock(
          (dwconv): SparseConv2d(192, 192, kernel_size=(7, 7), stride=(1, 1), padding=(3, 3), groups=192)
          (norm): SparseLayerNorm((192,), eps=1e-06, elementwise_affine=True)
          (pwconv1): Linear(in_features=192, out_features=768, bias=True)
          (act): GELU()
          (pwconv2): Linear(in_features=768, out_features=192, bias=True)
          (drop_path): DropPath(drop_prob=0.029)
        )
      )
      (2): Sequential(
        (0): SparseConvNeXtBlock(
          (dwconv): SparseConv2d(384, 384, kernel_size=(7, 7), stride=(1, 1), padding=(3, 3), groups=384)
          (norm): SparseLayerNorm((384,), eps=1e-06, elementwise_affine=True)
          (pwconv1): Linear(in_features=384, out_features=1536, bias=True)
          (act): GELU()
          (pwconv2): Linear(in_features=1536, out_features=384, bias=True)
          (drop_path): DropPath(drop_prob=0.034)
        )
        (1): SparseConvNeXtBlock(
          (dwconv): SparseConv2d(384, 384, kernel_size=(7, 7), stride=(1, 1), padding=(3, 3), groups=384)
          (norm): SparseLayerNorm((384,), eps=1e-06, elementwise_affine=True)
          (pwconv1): Linear(in_features=384, out_features=1536, bias=True)
          (act): GELU()
          (pwconv2): Linear(in_features=1536, out_features=384, bias=True)
          (drop_path): DropPath(drop_prob=0.040)
        )
        (2): SparseConvNeXtBlock(
          (dwconv): SparseConv2d(384, 384, kernel_size=(7, 7), stride=(1, 1), padding=(3, 3), groups=384)
          (norm): SparseLayerNorm((384,), eps=1e-06, elementwise_affine=True)
          (pwconv1): Linear(in_features=384, out_features=1536, bias=True)
          (act): GELU()
          (pwconv2): Linear(in_features=1536, out_features=384, bias=True)
          (drop_path): DropPath(drop_prob=0.046)
        )
        (3): SparseConvNeXtBlock(
          (dwconv): SparseConv2d(384, 384, kernel_size=(7, 7), stride=(1, 1), padding=(3, 3), groups=384)
          (norm): SparseLayerNorm((384,), eps=1e-06, elementwise_affine=True)
          (pwconv1): Linear(in_features=384, out_features=1536, bias=True)
          (act): GELU()
          (pwconv2): Linear(in_features=1536, out_features=384, bias=True)
          (drop_path): DropPath(drop_prob=0.051)
        )
        (4): SparseConvNeXtBlock(
          (dwconv): SparseConv2d(384, 384, kernel_size=(7, 7), stride=(1, 1), padding=(3, 3), groups=384)
          (norm): SparseLayerNorm((384,), eps=1e-06, elementwise_affine=True)
          (pwconv1): Linear(in_features=384, out_features=1536, bias=True)
          (act): GELU()
          (pwconv2): Linear(in_features=1536, out_features=384, bias=True)
          (drop_path): DropPath(drop_prob=0.057)
        )
        (5): SparseConvNeXtBlock(
          (dwconv): SparseConv2d(384, 384, kernel_size=(7, 7), stride=(1, 1), padding=(3, 3), groups=384)
          (norm): SparseLayerNorm((384,), eps=1e-06, elementwise_affine=True)
          (pwconv1): Linear(in_features=384, out_features=1536, bias=True)
          (act): GELU()
          (pwconv2): Linear(in_features=1536, out_features=384, bias=True)
          (drop_path): DropPath(drop_prob=0.063)
        )
        (6): SparseConvNeXtBlock(
          (dwconv): SparseConv2d(384, 384, kernel_size=(7, 7), stride=(1, 1), padding=(3, 3), groups=384)
          (norm): SparseLayerNorm((384,), eps=1e-06, elementwise_affine=True)
          (pwconv1): Linear(in_features=384, out_features=1536, bias=True)
          (act): GELU()
          (pwconv2): Linear(in_features=1536, out_features=384, bias=True)
          (drop_path): DropPath(drop_prob=0.069)
        )
        (7): SparseConvNeXtBlock(
          (dwconv): SparseConv2d(384, 384, kernel_size=(7, 7), stride=(1, 1), padding=(3, 3), groups=384)
          (norm): SparseLayerNorm((384,), eps=1e-06, elementwise_affine=True)
          (pwconv1): Linear(in_features=384, out_features=1536, bias=True)
          (act): GELU()
          (pwconv2): Linear(in_features=1536, out_features=384, bias=True)
          (drop_path): DropPath(drop_prob=0.074)
        )
        (8): SparseConvNeXtBlock(
          (dwconv): SparseConv2d(384, 384, kernel_size=(7, 7), stride=(1, 1), padding=(3, 3), groups=384)
          (norm): SparseLayerNorm((384,), eps=1e-06, elementwise_affine=True)
          (pwconv1): Linear(in_features=384, out_features=1536, bias=True)
          (act): GELU()
          (pwconv2): Linear(in_features=1536, out_features=384, bias=True)
          (drop_path): DropPath(drop_prob=0.080)
        )
        (9): SparseConvNeXtBlock(
          (dwconv): SparseConv2d(384, 384, kernel_size=(7, 7), stride=(1, 1), padding=(3, 3), groups=384)
          (norm): SparseLayerNorm((384,), eps=1e-06, elementwise_affine=True)
          (pwconv1): Linear(in_features=384, out_features=1536, bias=True)
          (act): GELU()
          (pwconv2): Linear(in_features=1536, out_features=384, bias=True)
          (drop_path): DropPath(drop_prob=0.086)
        )
        (10): SparseConvNeXtBlock(
          (dwconv): SparseConv2d(384, 384, kernel_size=(7, 7), stride=(1, 1), padding=(3, 3), groups=384)
          (norm): SparseLayerNorm((384,), eps=1e-06, elementwise_affine=True)
          (pwconv1): Linear(in_features=384, out_features=1536, bias=True)
          (act): GELU()
          (pwconv2): Linear(in_features=1536, out_features=384, bias=True)
          (drop_path): DropPath(drop_prob=0.091)
        )
        (11): SparseConvNeXtBlock(
          (dwconv): SparseConv2d(384, 384, kernel_size=(7, 7), stride=(1, 1), padding=(3, 3), groups=384)
          (norm): SparseLayerNorm((384,), eps=1e-06, elementwise_affine=True)
          (pwconv1): Linear(in_features=384, out_features=1536, bias=True)
          (act): GELU()
          (pwconv2): Linear(in_features=1536, out_features=384, bias=True)
          (drop_path): DropPath(drop_prob=0.097)
        )
        (12): SparseConvNeXtBlock(
          (dwconv): SparseConv2d(384, 384, kernel_size=(7, 7), stride=(1, 1), padding=(3, 3), groups=384)
          (norm): SparseLayerNorm((384,), eps=1e-06, elementwise_affine=True)
          (pwconv1): Linear(in_features=384, out_features=1536, bias=True)
          (act): GELU()
          (pwconv2): Linear(in_features=1536, out_features=384, bias=True)
          (drop_path): DropPath(drop_prob=0.103)
        )
        (13): SparseConvNeXtBlock(
          (dwconv): SparseConv2d(384, 384, kernel_size=(7, 7), stride=(1, 1), padding=(3, 3), groups=384)
          (norm): SparseLayerNorm((384,), eps=1e-06, elementwise_affine=True)
          (pwconv1): Linear(in_features=384, out_features=1536, bias=True)
          (act): GELU()
          (pwconv2): Linear(in_features=1536, out_features=384, bias=True)
          (drop_path): DropPath(drop_prob=0.109)
        )
        (14): SparseConvNeXtBlock(
          (dwconv): SparseConv2d(384, 384, kernel_size=(7, 7), stride=(1, 1), padding=(3, 3), groups=384)
          (norm): SparseLayerNorm((384,), eps=1e-06, elementwise_affine=True)
          (pwconv1): Linear(in_features=384, out_features=1536, bias=True)
          (act): GELU()
          (pwconv2): Linear(in_features=1536, out_features=384, bias=True)
          (drop_path): DropPath(drop_prob=0.114)
        )
        (15): SparseConvNeXtBlock(
          (dwconv): SparseConv2d(384, 384, kernel_size=(7, 7), stride=(1, 1), padding=(3, 3), groups=384)
          (norm): SparseLayerNorm((384,), eps=1e-06, elementwise_affine=True)
          (pwconv1): Linear(in_features=384, out_features=1536, bias=True)
          (act): GELU()
          (pwconv2): Linear(in_features=1536, out_features=384, bias=True)
          (drop_path): DropPath(drop_prob=0.120)
        )
        (16): SparseConvNeXtBlock(
          (dwconv): SparseConv2d(384, 384, kernel_size=(7, 7), stride=(1, 1), padding=(3, 3), groups=384)
          (norm): SparseLayerNorm((384,), eps=1e-06, elementwise_affine=True)
          (pwconv1): Linear(in_features=384, out_features=1536, bias=True)
          (act): GELU()
          (pwconv2): Linear(in_features=1536, out_features=384, bias=True)
          (drop_path): DropPath(drop_prob=0.126)
        )
        (17): SparseConvNeXtBlock(
          (dwconv): SparseConv2d(384, 384, kernel_size=(7, 7), stride=(1, 1), padding=(3, 3), groups=384)
          (norm): SparseLayerNorm((384,), eps=1e-06, elementwise_affine=True)
          (pwconv1): Linear(in_features=384, out_features=1536, bias=True)
          (act): GELU()
          (pwconv2): Linear(in_features=1536, out_features=384, bias=True)
          (drop_path): DropPath(drop_prob=0.131)
        )
        (18): SparseConvNeXtBlock(
          (dwconv): SparseConv2d(384, 384, kernel_size=(7, 7), stride=(1, 1), padding=(3, 3), groups=384)
          (norm): SparseLayerNorm((384,), eps=1e-06, elementwise_affine=True)
          (pwconv1): Linear(in_features=384, out_features=1536, bias=True)
          (act): GELU()
          (pwconv2): Linear(in_features=1536, out_features=384, bias=True)
          (drop_path): DropPath(drop_prob=0.137)
        )
        (19): SparseConvNeXtBlock(
          (dwconv): SparseConv2d(384, 384, kernel_size=(7, 7), stride=(1, 1), padding=(3, 3), groups=384)
          (norm): SparseLayerNorm((384,), eps=1e-06, elementwise_affine=True)
          (pwconv1): Linear(in_features=384, out_features=1536, bias=True)
          (act): GELU()
          (pwconv2): Linear(in_features=1536, out_features=384, bias=True)
          (drop_path): DropPath(drop_prob=0.143)
        )
        (20): SparseConvNeXtBlock(
          (dwconv): SparseConv2d(384, 384, kernel_size=(7, 7), stride=(1, 1), padding=(3, 3), groups=384)
          (norm): SparseLayerNorm((384,), eps=1e-06, elementwise_affine=True)
          (pwconv1): Linear(in_features=384, out_features=1536, bias=True)
          (act): GELU()
          (pwconv2): Linear(in_features=1536, out_features=384, bias=True)
          (drop_path): DropPath(drop_prob=0.149)
        )
        (21): SparseConvNeXtBlock(
          (dwconv): SparseConv2d(384, 384, kernel_size=(7, 7), stride=(1, 1), padding=(3, 3), groups=384)
          (norm): SparseLayerNorm((384,), eps=1e-06, elementwise_affine=True)
          (pwconv1): Linear(in_features=384, out_features=1536, bias=True)
          (act): GELU()
          (pwconv2): Linear(in_features=1536, out_features=384, bias=True)
          (drop_path): DropPath(drop_prob=0.154)
        )
        (22): SparseConvNeXtBlock(
          (dwconv): SparseConv2d(384, 384, kernel_size=(7, 7), stride=(1, 1), padding=(3, 3), groups=384)
          (norm): SparseLayerNorm((384,), eps=1e-06, elementwise_affine=True)
          (pwconv1): Linear(in_features=384, out_features=1536, bias=True)
          (act): GELU()
          (pwconv2): Linear(in_features=1536, out_features=384, bias=True)
          (drop_path): DropPath(drop_prob=0.160)
        )
        (23): SparseConvNeXtBlock(
          (dwconv): SparseConv2d(384, 384, kernel_size=(7, 7), stride=(1, 1), padding=(3, 3), groups=384)
          (norm): SparseLayerNorm((384,), eps=1e-06, elementwise_affine=True)
          (pwconv1): Linear(in_features=384, out_features=1536, bias=True)
          (act): GELU()
          (pwconv2): Linear(in_features=1536, out_features=384, bias=True)
          (drop_path): DropPath(drop_prob=0.166)
        )
        (24): SparseConvNeXtBlock(
          (dwconv): SparseConv2d(384, 384, kernel_size=(7, 7), stride=(1, 1), padding=(3, 3), groups=384)
          (norm): SparseLayerNorm((384,), eps=1e-06, elementwise_affine=True)
          (pwconv1): Linear(in_features=384, out_features=1536, bias=True)
          (act): GELU()
          (pwconv2): Linear(in_features=1536, out_features=384, bias=True)
          (drop_path): DropPath(drop_prob=0.171)
        )
        (25): SparseConvNeXtBlock(
          (dwconv): SparseConv2d(384, 384, kernel_size=(7, 7), stride=(1, 1), padding=(3, 3), groups=384)
          (norm): SparseLayerNorm((384,), eps=1e-06, elementwise_affine=True)
          (pwconv1): Linear(in_features=384, out_features=1536, bias=True)
          (act): GELU()
          (pwconv2): Linear(in_features=1536, out_features=384, bias=True)
          (drop_path): DropPath(drop_prob=0.177)
        )
        (26): SparseConvNeXtBlock(
          (dwconv): SparseConv2d(384, 384, kernel_size=(7, 7), stride=(1, 1), padding=(3, 3), groups=384)
          (norm): SparseLayerNorm((384,), eps=1e-06, elementwise_affine=True)
          (pwconv1): Linear(in_features=384, out_features=1536, bias=True)
          (act): GELU()
          (pwconv2): Linear(in_features=1536, out_features=384, bias=True)
          (drop_path): DropPath(drop_prob=0.183)
        )
      )
      (3): Sequential(
        (0): SparseConvNeXtBlock(
          (dwconv): SparseConv2d(768, 768, kernel_size=(7, 7), stride=(1, 1), padding=(3, 3), groups=768)
          (norm): SparseLayerNorm((768,), eps=1e-06, elementwise_affine=True)
          (pwconv1): Linear(in_features=768, out_features=3072, bias=True)
          (act): GELU()
          (pwconv2): Linear(in_features=3072, out_features=768, bias=True)
          (drop_path): DropPath(drop_prob=0.189)
        )
        (1): SparseConvNeXtBlock(
          (dwconv): SparseConv2d(768, 768, kernel_size=(7, 7), stride=(1, 1), padding=(3, 3), groups=768)
          (norm): SparseLayerNorm((768,), eps=1e-06, elementwise_affine=True)
          (pwconv1): Linear(in_features=768, out_features=3072, bias=True)
          (act): GELU()
          (pwconv2): Linear(in_features=3072, out_features=768, bias=True)
          (drop_path): DropPath(drop_prob=0.194)
        )
        (2): SparseConvNeXtBlock(
          (dwconv): SparseConv2d(768, 768, kernel_size=(7, 7), stride=(1, 1), padding=(3, 3), groups=768)
          (norm): SparseLayerNorm((768,), eps=1e-06, elementwise_affine=True)
          (pwconv1): Linear(in_features=768, out_features=3072, bias=True)
          (act): GELU()
          (pwconv2): Linear(in_features=3072, out_features=768, bias=True)
          (drop_path): DropPath(drop_prob=0.200)
        )
      )
    )
    (norm3): SparseLayerNorm((768,), eps=1e-06, elementwise_affine=True)
  )
  init_cfg={'type': 'Pretrained', 'checkpoint': 'data/ckpts/convnextS_1kpretrained_official_style.pth'}
  (img_neck): CustomFPN(
    (lateral_convs): ModuleList(
      (0): ConvModule(
        (conv): Conv2d(768, 256, kernel_size=(1, 1), stride=(1, 1))
      )
    )
    (fpn_convs): ModuleList(
      (0): ConvModule(
        (conv): Conv2d(256, 256, kernel_size=(3, 3), stride=(1, 1), padding=(1, 1))
      )
    )
  )
  init_cfg={'type': 'Xavier', 'layer': 'Conv2d', 'distribution': 'uniform'}
  (input_proj): Conv2d(256, 256, kernel_size=(1, 1), stride=(1, 1))
  (depth_net): DepthNet(
    (reduce_conv): Sequential(
      (0): Conv2d(256, 256, kernel_size=(3, 3), stride=(1, 1), padding=(1, 1))
      (1): BatchNorm2d(256, eps=1e-05, momentum=0.1, affine=True, track_running_stats=True)
      (2): ReLU(inplace=True)
    )
    (depth_conv): Sequential(
      (0): BasicBlock(
        (conv1): Conv2d(256, 256, kernel_size=(3, 3), stride=(1, 1), padding=(1, 1), bias=False)
        (bn1): BatchNorm2d(256, eps=1e-05, momentum=0.1, affine=True, track_running_stats=True)
        (conv2): Conv2d(256, 256, kernel_size=(3, 3), stride=(1, 1), padding=(1, 1), bias=False)
        (bn2): BatchNorm2d(256, eps=1e-05, momentum=0.1, affine=True, track_running_stats=True)
        (relu): ReLU(inplace=True)
      )
      (1): BasicBlock(
        (conv1): Conv2d(256, 256, kernel_size=(3, 3), stride=(1, 1), padding=(1, 1), bias=False)
        (bn1): BatchNorm2d(256, eps=1e-05, momentum=0.1, affine=True, track_running_stats=True)
        (conv2): Conv2d(256, 256, kernel_size=(3, 3), stride=(1, 1), padding=(1, 1), bias=False)
        (bn2): BatchNorm2d(256, eps=1e-05, momentum=0.1, affine=True, track_running_stats=True)
        (relu): ReLU(inplace=True)
      )
      (2): BasicBlock(
        (conv1): Conv2d(256, 256, kernel_size=(3, 3), stride=(1, 1), padding=(1, 1), bias=False)
        (bn1): BatchNorm2d(256, eps=1e-05, momentum=0.1, affine=True, track_running_stats=True)
        (conv2): Conv2d(256, 256, kernel_size=(3, 3), stride=(1, 1), padding=(1, 1), bias=False)
        (bn2): BatchNorm2d(256, eps=1e-05, momentum=0.1, affine=True, track_running_stats=True)
        (relu): ReLU(inplace=True)
      )
      (3): ASPP(
        (aspp1): _ASPPModule(
          (atrous_conv): Conv2d(256, 96, kernel_size=(1, 1), stride=(1, 1), bias=False)
          (bn): BatchNorm2d(96, eps=1e-05, momentum=0.1, affine=True, track_running_stats=True)
          (relu): ReLU()
        )
        (aspp2): _ASPPModule(
          (atrous_conv): Conv2d(256, 96, kernel_size=(3, 3), stride=(1, 1), padding=(6, 6), dilation=(6, 6), bias=False)
          (bn): BatchNorm2d(96, eps=1e-05, momentum=0.1, affine=True, track_running_stats=True)
          (relu): ReLU()
        )
        (aspp3): _ASPPModule(
          (atrous_conv): Conv2d(256, 96, kernel_size=(3, 3), stride=(1, 1), padding=(12, 12), dilation=(12, 12), bias=False)
          (bn): BatchNorm2d(96, eps=1e-05, momentum=0.1, affine=True, track_running_stats=True)
          (relu): ReLU()
        )
        (aspp4): _ASPPModule(
          (atrous_conv): Conv2d(256, 96, kernel_size=(3, 3), stride=(1, 1), padding=(18, 18), dilation=(18, 18), bias=False)
          (bn): BatchNorm2d(96, eps=1e-05, momentum=0.1, affine=True, track_running_stats=True)
          (relu): ReLU()
        )
        (global_avg_pool): Sequential(
          (0): AdaptiveAvgPool2d(output_size=(1, 1))
          (1): Conv2d(256, 96, kernel_size=(1, 1), stride=(1, 1), bias=False)
          (2): BatchNorm2d(96, eps=1e-05, momentum=0.1, affine=True, track_running_stats=True)
          (3): ReLU()
        )
        (conv1): Conv2d(480, 256, kernel_size=(1, 1), stride=(1, 1), bias=False)
        (bn1): BatchNorm2d(256, eps=1e-05, momentum=0.1, affine=True, track_running_stats=True)
        (relu): ReLU()
        (dropout): Dropout(p=0.5, inplace=False)
      )
      (4): Conv2d(256, 118, kernel_size=(1, 1), stride=(1, 1))
    )
  )
)
2024-11-12 11:51:00,331 - mmdet - INFO - Automatic scaling of learning rate (LR) has been disabled.
2024-11-12 11:51:00,379 - mmdet - INFO - Start running, host: ma-user@os-node-created-6ptf5.novalocal, work_dir: /cache/zhm/Uni3DGS/work_dirs/uvtr_cam_vs0.075_pretrain_wo_depth_cs3
2024-11-12 11:51:00,379 - mmdet - INFO - Hooks will be executed in the following order:
…
